model/model.pth (torch, 16787 bytes, 4 tensors)

linear1.weight f4 [256, 11]
00000000: 688b fd3d aede 033e c2d6 883e 00b4 3abc
00000010: 043a 19be 3a66 1abe a835 f1bd 606e 03bc
00000020: 5599 95be 60be 42be b0a3 803e 0b5b 5b3e
00000030: 02dc 203e 1ce4 673e c841 833e 8408 84be
00000040: 79e0 873e 221d 6abe c17e 94be a07a 02be
00000050: 787e 6a3b 8c67 79be ff37 7c3e ac0a 4d3e
00000060: 59e4 843e 307f c63c c7f8 10be b143 453e
00000070: b550 883e 94fa 6fbe 619a 14bd 6cdc 65be
00000080: f367 6b3d 8405 673e 5083 a5bc fa25 32be
00000090: 1bd6 89be d2d9 6ebe 5046 453d 6a2f 143d
000000a0: c6b8 24be d6e6 5cbd 4ae5 0dbe 7320 69be
000000b0: d214 00be c9b5 583e b452 0f3e 2247 323e
000000c0: 9d26 92be 2338 30be 0f13 243e 810d 18be
000000d0: 00a5 f53d b180 b53d c5f0 4b3e 120e 163e
000000e0: 7063 ffbd 305e bfbc d0ce 563d 1792 96be
000000f0: ea7a 79be 1a35 99be f6b1 61be 55d0 34be
00000100: 5eb2 afbd 3864 20be 1a79 2e3e fe34 173e
00000110: c638 133d ac01 2ebe 8974 0cbe 742b 003e
00000120: 2258 943e db33 81be 06b7 513e aafd 2a3e
00000130: 8ceb c8bd f8ef 973d 5f2e 41be 7596 023e
00000140: 18c3 033d acaf d73b d134 94be e8e8 97be
00000150: 294f 54be b95b 2cbe 0f75 6d3d 59fe 0e3e
00000160: cc78 b53d c4f8 98bd 4883 64be 24c1 96bc
00000170: 5df0 f9bc 46af 05be c51b 203e 63cc 9d3d
00000180: c50d 85be 91fe 7f3e 84fd 43be b5b0 983e
00000190: 1887 0c3e 8bc9 7dbe 8857 813e 60da cabd
000001a0: a800 813e 0bb0 f83c 7a9a afbd c6f0 a9bd
000001b0: aa81 50be 4f7b 96bd 44cf 913e be7d 1ebd
000001c0: 3851 53be 1fa6 8a3e 8a02 443e 45aa d2bd
000001d0: 6354 9ebe cafa 14be 9622 10be 2103 64bd
000001e0: b927 9cbd 47ac b6bb 86e1 143e 1734 843e
000001f0: c229 a83d db14 5d3c ad53 463e 71e1 393e
00000200: 948f e73d 6856 943d e86f 213e f62b 12be
00000210: 2409 8f3e 3219 873e 30db dfbc 7e07 8f3e
00000220: 0026 bf3c d4f6 b6bd 6c31 8fbe e72b aabd
00000230: b662 50be 4e79 c0bd 357f 9bb7 11bf 3d3e
00000240: 9772 a13e 70aa 913e 8e88 7f3e 4e47 213e
00000250: 053a 29be 3ee2 a03e 1a34 023d acac 813e
00000260: 7ef1 9c3d f4a9 223e aafd 8a3e 7ce8 223e
00000270: 203f 1cbc 1038 7f3e 0926 80be d0d5 e63d
00000280: 79a3 4bbe e8b4 81be 5c3f 92be c0ea 92be
00000290: 1f61 63be 825b dc3d fe5e 0c3d 0e4b 97be
000002a0: 8c93 82be 81dc 9a3e 7146 59be a34f 8e3e
000002b0: e000 0cbd 4e92 623c 5b7b 53be 426c 7e3e
000002c0: 3483 1b3e a5e4 143e 4f3c 17bd 8bf2 803e
000002d0: 1ba9 843e 0f31 8b3e 9c56 8bbe 66db a7bd
000002e0: f017 5a3e 7fb9 5c3e 905f 7dbe 3bb0 c13d
000002f0: 6cde d03d be95 353d b461 2aba 5c4a 113e
00000300: 67bb 353e d393 22be 3a4c 8dbd 8c6a 51bc
00000310: 1043 1d3e 319c 943e 52b1 33be 7236 113e
00000320: 52f8 68bd 6dec d53d 7957 913c f745 20be
00000330: e161 35be 0eab 9bbd 5262 153d b7f9 4fbe
00000340: c7fc 8c3e aad3 113e 04b1 7fbd 0b6b 363e
00000350: 002b 813e 87d4 e73d 005d 813e 0f4f f33c
00000360: d226 69be d2ab 5ebe 960b 833e 43d3 81be
00000370: ff84 92be 4cf2 f83d b032 62be 0ff0 763d
00000380: 36eb f33d 4165 a2bd 3b7d 573e 42b5 c33c
00000390: effe 99bd 6e11 8d3d 5d06 603c c4d5 d4bd
000003a0: f847 28be a4f5 eebd 053d 183e 46bc c23d
000003b0: 047a 66be d38e 193e 0465 823e d36d 013d
000003c0: 4c3f db3d 2455 65be 002f ab3d 7dbf 7cbe
000003d0: 4fcc 0dbe fae3 933e 2e57 953e 99a9 3dbe
000003e0: 50b4 8d3e e468 67be b089 fcbd 980a 8ebe
000003f0: b077 2abe f0f1 c1bd f829 413e 110c 0dbe
0.12380105 0.12877914 0.26726347 -0.011395454 -0.14963537 -0.15078059 -0.11777812 -0.008021921
-0.29218546 -0.19017935 0.25124884 0.21421449 0.15708926 0.2264561 0.25636125 -0.25787747
0.26538447 -0.22862676 -0.29002956 -0.1274209 0.0035780948 -0.24355906 0.24630736 0.20023602
0.25955465 0.02423057 -0.14157401 0.19264103 0.26624075 -0.23435432 -0.03628004 -0.22447366
0.05747218 0.22560698 -0.020204216 -0.173973 -0.26921162 -0.2332528 0.04816276 0.03617803
-0.1608611 -0.05393108 -0.13856998 -0.22766285 -0.12507942 0.21163096 0.13996392 0.17409948
-0.28545085 -0.17208914 0.16022895 -0.14848901 0.11994362 0.088624366 0.19916065 0.14653805
-0.12470138 -0.023360342 0.052443326 -0.29408333 -0.24363294 -0.29923326 -0.22040543 -0.17657597
-0.08578943 -0.1566323 0.17038384 0.14766309 0.035942815 -0.16992825 -0.1371633 0.12516576
0.2897349 -0.25234875 0.20479974 0.16698328 -0.09810552 0.07418817 -0.18865345 0.12752707
0.032168478 0.006582221 -0.28946546 -0.2966988 -0.20733322 -0.16831864 0.057972964 0.13964213
0.08860931 -0.07469323 -0.22315705 -0.018402644 -0.030510122 -0.13055143 0.15635593 0.07704999
-0.25987068 0.24999453 -0.19139677 0.29822317 0.13723409 -0.24783914 0.25262094 -0.09904933
0.25195813 0.030357381 -0.08574386 -0.08297877 -0.20361963 -0.07347738 0.28478444 -0.038694136
-0.20636451 0.27079865 0.19141594 -0.102863826 -0.30923757 -0.14548793 -0.14075693 -0.055667046
-0.07624764 -0.0055747363 0.14539155 0.2582099 0.0821109 0.013493742 0.19367857 0.18152405
0.11306682 0.07243043 0.15765345 -0.14274582 0.2793666 0.2638641 -0.027326196 0.27935404
0.02333355 -0.089337975 -0.27967393 -0.08309155 -0.20350155 -0.09398137 -1.8536675e-05 0.18529917
0.31532738 0.28450346 0.24954435 0.15749857 -0.16526039 0.3142261 0.03178797 0.2532705
0.076632485 0.15885144 0.27146655 0.15908998 -0.009536535 0.2492373 -0.2502902 0.1127125
-0.19886579 -0.25333333 -0.28563964 -0.28694725 -0.22205018 0.10759641 0.03427028 -0.2954945
-0.25503194 0.30246356 -0.21218278 0.27795133 -0.034180522 0.013828827 -0.20652525 0.24845985
0.15186769 0.14540346 -0.03692275 0.25185046 0.25910267 0.27185866 -0.27214515 -0.08196144
0.21298194 0.21555136 -0.24743485 0.094574414 0.101986736 0.04433226 -0.0006499544 0.14188522
0.1774727 -0.15876703 -0.06899305 -0.01278175 0.15357614 0.29025415 -0.17548111 0.14180925
-0.05687744 0.10445485 0.017741906 -0.1565169 -0.17713119 -0.076009855 0.03647072 -0.20310102
0.27536604 0.142409 -0.062424675 0.17814271 0.2522812 0.11319833 0.25266266 0.029700784
-0.22768715 -0.21745232 0.25594777 -0.25356492 -0.28617093 0.121555895 -0.22089648 0.06028753
0.11910097 -0.07929469 0.21043865 0.023890141 -0.07519328 0.0688809 0.013673392 -0.10392335
-0.16433704 -0.11667946 0.14867027 0.095085666 -0.22507483 0.1499589 0.25467694 0.031598877
0.10705432 -0.2239576 0.08358574 -0.24682422 -0.13847469 0.2888487 0.29168075 -0.18521728
0.2767663 -0.22598606 -0.12330949 -0.27742457 -0.1664722 -0.09469974 0.18863666 -0.13774134

linear1.bias f4 [256]
00000000: 21d5 72be d0c0 c9bd 603c 87be ed8d 9ebd
00000010: 017d 3dbd 0068 d0bd 43c7 ce3d 9dd7 4b3d
00000020: 7845 03be 98e0 74bc 0bdb 803e e40e 8dbe
00000030: af8d 86bd 8cf7 683e c5bf 22be 4d8b efbd
00000040: 7248 44bc 4923 31be 0991 d23d 1f5f 5d3e
00000050: ea75 353e ffda ba3d 6b05 27be 97a3 873e
00000060: 8d6d c93d f646 89be a914 42bd 80db 54be
00000070: 0775 783e d77a 513e 622c 89be ad20 833e
00000080: 2c98 9a3d 1eac ac3b e013 ed3d c9aa 4c3e
00000090: 67ac c0bd 4efc 603e a7d2 2d3e 81af 6ebe
000000a0: f8e5 033e 95b8 92be 71b2 0dbd 27a2 42be
000000b0: 1009 01bd ac97 5ebd 16fb 94bd 1f4f 28be
000000c0: 8fb4 243d 3c4d cfbc 602f d9ba 3911 6f3e
000000d0: ab4b 833e bda4 8dbe 2e51 823e 0750 0d3e
000000e0: c8fc 88be 01d5 8e3e 959e 1a3e 9c42 e5bd
000000f0: 7bf2 533e d59d 19be 689a 82be 4151 a23e
00000100: 5fa1 773e ecee 5e3e 866e 903e ba37 0ebe
00000110: 7cd4 223e 2635 e2bd fb7c 49be 441b 68be
00000120: 0d7e 3fbe 242e b83c ad26 e3bd 0170 8a3e
00000130: d16f 383e d0c2 19be e5ad 75be 76c7 83be
00000140: 2a69 3abd 962e 893e 6ba5 c93d dd32 5a3d
00000150: 77ff 223e 6f69 483e 2b66 513e a156 133e
00000160: 2b41 91be d2e1 debd fa56 3d3e e7cb 24bd
00000170: 45c8 513d cfa1 8d3c 32aa d43d d4fe 64be
00000180: dbb1 143e d291 23bd 1177 f63d 6393 3a3e
00000190: ded2 6a3e c0b7 d9bd 3b52 153d d936 a1bc
000001a0: a3db 35be 1061 2fbd 5a5a 22bd e5b9 78be
000001b0: 2e40 0f3e 802e 403e 1141 87be 51d1 423e
000001c0: ccf5 8c3e 1f8d 2c3e cba0 7a3e c6eb 76be
000001d0: e694 e0bd 1f43 4f3e df7f 363e a6b4 263e
000001e0: 8ab1 0e3e 4776 27be 762d 85be 9fb2 ed3d
000001f0: 948f 09be e6ad 80be 5563 0d3e c174 08bd
00000200: 9b3c 93bd c55d 1c3e c634 16be 3ad6 803e
00000210: bfd9 a7bb 88e3 37be b9ac 62be 00fb 3fbe
00000220: 5000 92bd d80e 6dbd ff41 02bd f699 8e3e
00000230: 6ac4 f1bd 6bb8 853e a877 cb3b 1771 853d
00000240: 6027 94be ab24 0cbe daa4 67be 8b9c ef3c
00000250: b69a 60bd 5a98 3abe b172 f73d d3e8 853e
00000260: 77d0 6dbe 9078 9ebd 5316 183e 6bd0 bdbc
00000270: 3ee6 23be 2c1e 893d 3c37 b03d 1354 3e3e
00000280: cfeb aabd fe88 1f3e 6f25 0fbe fb24 60be
00000290: 7960 813e bdb4 97be 1e9e 0ebe e71a 6cbe
000002a0: 424c 633e 0d3c 45be ed6e 8a3e 405f a33b
000002b0: 0e97 9bbe d8d7 463e 3dda 8d3c 3c0c 113e
000002c0: 86fb 97be 20b5 61be 6ae9 b9bd d3b4 413d
000002d0: 1f54 aebd 1d9e 93be 94ad 9dbd c69a 023e
000002e0: ee99 803e 17a8 413d 6c21 593e d147 903d
000002f0: 9230 cc3d af4e 6f3e 2623 f4bd f606 383e
00000300: 51e8 7ebe 2eac 1cbe 59fc d5bd 2549 56be
00000310: ceb1 3ebe 1b5f 343e f8e2 e93c 0db6 46bc
00000320: 6e7a 8ebe 4168 223b b7c5 40be ad83 7a3e
00000330: 7d3e 53be f48b 8e3e d28a ffbd 35ed 6dbe
00000340: 81e6 1d3d ee7a adbd 5e7c ad3d abc4 a1bd
00000350: c324 03be 6cb0 fdbd 45a2 4ebe 02c5 dc3d
00000360: 7eb8 0bbe a98a 54be 06be 36be 4778 173d
00000370: bb75 55be 2743 76be 64f0 20be 6b04 c53d
00000380: 6d50 edbc ec58 6b3e 4bbd 8a3e a783 25be
00000390: e327 d13d 812b 90be 50e9 b5bd 2735 74be
000003a0: 6159 7cbe 2679 2e3d 26ea 6ebe 93b4 143e
000003b0: 0e27 18be e354 093e 4c24 733e 9407 a13b
000003c0: 29f7 89bd 6647 c03d ac76 793e ef07 48be
000003d0: 1f39 79bd dece 333e 57df 3b3d 1dcb 733c
000003e0: f6e3 0d3e 796b 97be 09ed 61bd 531b f13d
000003f0: 801d 8b3e e4d5 18be b602 ebbd 7838 543e
-0.23714115 -0.09851229 -0.2641325 -0.07741914 -0.04626179 -0.101760864 0.100966 0.04976617
-0.12819469 -0.014946125 0.25167117 -0.27550423 -0.06569993 0.22750682 -0.15893467 -0.116964914
-0.011980163 -0.17298616 0.102815695 0.21618317 0.17720762 0.091238014 -0.1631066 0.26491997
0.09835348 -0.2681195 -0.047382984 -0.20786858 0.24263392 0.20457016 -0.26791674 0.25610867
0.07548556 0.0052695414 0.115760565 0.19987024 -0.09407883 0.21971247 0.16974889 -0.23309137
0.12880695 -0.2865645 -0.034594003 -0.19007169 -0.031502783 -0.054343864 -0.07274453 -0.16436432
0.040211257 -0.025305383 -0.0016569905 0.23346414 0.25643668 -0.27664748 0.2545256 0.1380006
-0.26755357 0.27896884 0.15099557 -0.11194345 0.20697968 -0.15001614 -0.25508428 0.31702617
0.24182652 0.21770829 0.28209323 -0.13888445 0.15901369 -0.110452935 -0.19676583 -0.22666651
-0.18700428 0.022482939 -0.11091361 0.27038577 0.18011405 -0.15015721 -0.23992117 -0.25738114
-0.04551045 0.26793355 0.09846004 0.053271163 0.15917765 0.1957147 0.2044913 0.14388515
-0.28370032 -0.108829156 0.1849021 -0.04023352 0.051216383 0.01728907 0.10384025 -0.22362834
0.14520971 -0.039933987 0.12034429 0.18220286 0.22932002 -0.10630751 0.036455374 -0.019679474
-0.17759566 -0.042817175 -0.039636947 -0.24289663 0.13989326 0.18767738 -0.2641683 0.1902516
0.27531278 0.16850708 0.244754 -0.24113378 -0.109659 0.20240448 0.17822216 0.1627985
0.13934913 -0.16353713 -0.26011246 0.11606335 -0.13433677 -0.25132674 0.13807423 -0.03331447
-0.07189294 0.15270145 -0.14668569 0.25163442 -0.005122393 -0.1795789 -0.22136201 -0.18748093
-0.07128966 -0.057875484 -0.03180122 0.27851838 -0.11805041 0.26117262 0.0062093325 0.06515711
-0.2893629 -0.13685863 -0.2262148 0.02924945 -0.054835044 -0.1822218 0.120824225 0.26154193
-0.23224054 -0.07737839 0.14852266 -0.02317067 -0.16005799 0.06695208 0.08604285 0.1858676
-0.08345758 0.15579602 -0.13979124 -0.21889107 0.25268915 -0.2963008 -0.13927504 -0.23057137
0.22197059 -0.19261189 0.27037755 0.00498572 -0.30388683 0.19418275 0.017315978 0.14164823
-0.29684085 -0.2204175 -0.09077723 0.047291588 -0.085121386 -0.28831568 -0.07699123 0.12754354
0.2511744 0.047279444 0.21204156 0.07044948 0.099702016 0.23369859 -0.119207665 0.17971405
-0.24893309 -0.15300056 -0.10448522 -0.2092634 -0.18622515 0.17614405 0.02855061 -0.012128365
-0.2782778 0.0024781378 -0.18825422 0.24464293 -0.20629306 0.2784115 -0.1247765 -0.23235019
0.038549904 -0.084707126 0.08470987 -0.078988396 -0.12806992 -0.123871654 -0.20179088 0.10779764
-0.13644597 -0.2075602 -0.17845926 0.03697994 -0.20845692 -0.24049054 -0.15716702 0.09619983
-0.028969014 0.2298314 0.27097544 -0.16163503 0.10212686 -0.2815819 -0.088823915 -0.23848401
-0.2464347 0.042596005 -0.23331508 0.14522009 -0.14858648 0.13411288 0.23744315 0.0049142335
-0.06736595 0.09388618 0.24361676 -0.19534276 -0.06084549 0.17559382 0.04586729 0.014879969
0.13856491 -0.29574183 -0.055157695 0.1177279 0.27170944 -0.14925343 -0.114751264 0.20724666

linear2.weight f4 [3, 256]
00000000: b82c 893c 5f98 c53b 6503 3abc f754 8a39
00000010: 827e 0ebd 286d aabc 288d 8cbc 31e9 3b3b
00000020: f03d 043d 5691 71bd a87b aa3c 393e 0a3d
00000030: 7dff adbc 708d 33bd 8e88 783d b822 03bd
00000040: e419 6b3d a4ad 723d 7d32 cc3b 3a31 253d
00000050: f7ff fc3a 5cd8 50bc a86e 9fbc 3d1c 6ebc
00000060: dc4a ad3c 1294 0ebd eacc be3d e2d5 97bc
00000070: ba0a 72bd d12b 5dbd 95e6 a03c 3477 7e3d
00000080: cec8 493d adaa b3bc 3172 babc 9c1b 4a3d
00000090: e5fc a83c 7be9 fc3c 4bbd f53c 789c f63b
000000a0: edd7 c1bc 16d8 483d e58d 3bbb ec0a 293d
000000b0: 78ba cb3c 896a 653d af10 4cbc 2bf8 30bc
000000c0: f258 5b3d b321 22bb 5a5f 073d 1f8c ec3c
000000d0: d4f0 ea3c cd39 88bc f1c2 2ebd 9c32 bbbc
000000e0: bc62 e1bc 62f8 d0bc 44bc 2e3d 8a4a 8abd
000000f0: 1d40 32bc 2b53 043c 3bf6 6fbd e626 f53c
00000100: 4e5a 4d3d fcb2 10bd 2d65 10bd f8e6 c2bc
00000110: 71f3 0b3d 8479 5d3c b67c a93c 2427 ca3c
00000120: 2b16 e1ba a7fc 143d d61e e9bb cd72 f83c
00000130: b11c 83ba b59c 8abc e9d6 3ebd 8fc4 2f3a
00000140: 50da a2bc 31e2 b53c 2ec6 b0bc 5600 03bd
00000150: e55a 253d 6d53 a7bc 7c2d aabc 51de 3f3d
00000160: 6446 70bd 8d67 97bc bd8d 79bd 435a 2e3c
00000170: 04c8 4b3d f55e 49bb ae7f 353d 8b8d e5b9
00000180: 1581 88bd 9cdf 513d 3901 233d a98a 123d
00000190: c89d ccbc e0be efbb 02a8 1bbc 55fe 0fbc
000001a0: 4454 8b3c b814 75bb 0f18 08bd 0856 163d
000001b0: 5089 2e3d 40d8 c3bb 1733 75bc 2cd7 cdbc
000001c0: c0ec 283d 4ee2 b53c 8fde ddbc c72c 0cbd
000001d0: 0478 3abd 6cb8 ca3c 2908 553c 7df8 943b
000001e0: 53b8 4b3d aba5 4cbd 8657 f6bb 95d4 f5bc
000001f0: 1b0d 2cbc bafc 4abd 0ffa 9f3c 46fe 623d
00000200: 02ad b63b 7a2b 883c 3bee 87bd 4f5e 783d
00000210: bc02 383c 86c1 113d 69b2 203d 0ac1 5d3d
00000220: dee9 b3bc 184c 913c fefc 073d 2d92 30bd
00000230: 6957 f1bc 4706 543d 614b 0abc 8ef5 a9bb
00000240: a47b cdbc 138e 34bd cbc7 4c3b f654 11bc
00000250: 6591 dc3b 68a5 47bd ebc5 febc b1c5 3b3d
00000260: 838c 663c e34d 3f3c 3fe5 ba3c c6da fc3c
00000270: 004a 30ba 6ace 893d cf86 533d d6aa 63bd
00000280: 1f7f e13c 800e 77bd 457d 2bbd c749 59bd
00000290: 5bf1 1b3d e810 45bc 6933 9dbc 8cac 2abb
000002a0: b9e8 973d 7632 52bd 65e0 5c3d 2ec0 58bd
000002b0: f629 88bd 4eae 54bd 80ab 5dbd b2f9 653d
000002c0: a078 95bc 00ad 503a e871 1e3d 20fc 6539
000002d0: ffb4 e0bc 0886 023d 4481 823a 57e8 28bd
000002e0: 0143 993c 0bea 1a3d 8735 4cbc 93f2 fcbc
000002f0: 0fa1 49bd e252 293c 0357 7a3c e16f e03c
00000300: 6c06 06bd 88cb a0bc 6717 5cbd c8e1 f13c
00000310: 0c14 883c fa8c 56bb 3ee8 0b3d bd7f 073d
00000320: f595 073d 3b1f 49bd 445f bdbc aaac 543a
00000330: 68e6 533c 8a26 0ebd 1e67 26bd b229 60bd
00000340: d87c b4bb 2483 d83c 8611 0dbb a168 eebb
00000350: fa39 5fbd bcc9 12bc 7271 b7bb 3c0e 84bd
00000360: c53c 8abd a2b2 83bd 3e20 c5bc 1fc3 03bd
00000370: 8401 583d 1cbc e13c e0c3 6fbd 4205 393d
00000380: 872c 213c 4ac8 5d3c 4205 413c 10b0 eebc
00000390: 994e 473d 1317 3d3c 7646 7abc 4048 df3b
000003a0: 2388 a4bd 1f03 fb3c bb31 323c 9f56 a5bc
000003b0: 2324 27bb 6d48 f63c 848f 203d ffbd 73bc
000003c0: 8361 d13c c757 623d bab7 8dbc 195e 8c3c
000003d0: 2194 e5bc 04f6 a33c 86fe c73c cda0 543d
000003e0: 05d7 e93c f93e f73c 7188 203b 6b98 aa3a
000003f0: bccc 52bd c6e6 3b3d 4825 ddbc 085d 4b3a
0.016744956 0.006030127 -0.011353348 0.00026384715 -0.034788616 -0.020804003 -0.017157152 0.0028672928
0.03228563 -0.058976494 0.020810917 0.033750746 -0.02123999 -0.043836057 0.060677104 -0.032015532
0.057397738 0.059247628 0.0062316046 0.04033015 0.0019302358 -0.012746897 -0.019461945 -0.0145331
0.02115386 -0.03480918 0.09316428 -0.018534604 -0.05909226 -0.053996865 0.0196412 0.0621254
0.049263768 -0.02193197 -0.022759529 0.049342737 0.020628402 0.03087305 0.029997488 0.0075259767
-0.023662532 0.0490342 -0.0028618511 0.04127018 0.024869189 0.056009803 -0.01245515 -0.010801355
0.05355162 -0.0024739325 0.03304992 0.028875409 0.028679289 -0.016629124 -0.04266638 -0.02285128
-0.0275129 -0.025509063 0.042660013 -0.067524984 -0.010879544 0.008076469 -0.058584433 0.029925775
0.05013495 -0.035326943 -0.03525274 -0.023791775 0.03416771 0.013517741 0.02068935 0.024676867
-0.0017172744 0.03637376 -0.0071142716 0.030328179 -0.0010003058 -0.016920427 -0.046591673 0.000670501
-0.01987949 0.022202583 -0.021578874 -0.031982742 0.040369887 -0.020425523 -0.020773642 0.046842877
-0.05866088 -0.018481994 -0.060926188 0.010641637 0.049751297 -0.0030726765 0.044311218 -0.0004378374
-0.066652454 0.05123864 0.039796088 0.035776768 -0.02497758 -0.0073164552 -0.009500505 -0.008788665
0.017007954 -0.0037396383 -0.03322607 0.03670314 0.04261142 -0.0059767067 -0.014965794 -0.025127016
0.041241407 0.022202637 -0.027083663 -0.03422239 -0.045524612 0.024746142 0.013002434 0.0045462237
0.049736332 -0.04996268 -0.007517758 -0.030008594 -0.010501171 -0.049557425 0.019528417 0.055418275
0.0055748234 0.016622294 -0.06637236 0.060636815 0.011231121 0.03558495 0.039232645 0.054139175
-0.021962103 0.01773648 0.033200257 -0.043108154 -0.029460626 0.0517638 -0.008440823 -0.005186743
-0.02508337 -0.044080805 0.0031247016 -0.008870354 0.0067311996 -0.048741728 -0.031100234 0.04584283
0.014071587 0.0116762845 0.022814391 0.030866038 -0.0006724894 0.067288235 0.051642235 -0.055582844
0.027526436 -0.060316563 -0.041867513 -0.053048875 0.03807197 -0.012027957 -0.019189553 -0.0026042787
0.07417435 -0.051317655 0.053924937 -0.05291765 -0.066486284 -0.051924042 -0.054118633 0.05614633
-0.018245995 0.00079603493 0.03868285 0.00021933066 -0.027430056 0.031866103 0.0009956737 -0.0412372
0.018708708 0.037820857 -0.012463934 -0.030877387 -0.049225863 0.010334702 0.015279534 0.027397098
-0.032720968 -0.019628301 -0.053733256 0.029526606 0.016611122 -0.0032737837 0.03415703 0.033080805
0.033101995 -0.04910205 -0.023116715 0.0008112887 0.012933351 -0.034704722 -0.040625684 -0.054727264
-0.0055080466 0.02642972 -0.0021525337 -0.0072756563 -0.05449865 -0.00895923 -0.0055982405 -0.064480275
-0.06749872 -0.06430556 -0.024063226 -0.032168504 0.05273582 0.027555518 -0.05853641 0.04517103
0.009837276 0.013536522 0.011781039 -0.029136688 0.04865894 0.011541146 -0.015275588 0.006814033
-0.080337785 0.030641137 0.0108761145 -0.020182906 -0.0025503717 0.030063832 0.039199367 -0.014876842
0.025559193 0.055259492 -0.017299522 0.017134713 -0.028024735 0.02001477 0.024413358 0.051911164
0.028544912 0.030181395 0.0024495388 0.0013015395 -0.05146478 0.04587438 -0.026995316 0.0007757698

linear2.bias f4 [3]
00000000: c961 88bc 918b 08bd 17ad 543d
-0.01664819 -0.033336226 0.051922884
